…
: 11880, 'warmup_iters': 0, 'solver_steps': [9504], 'solver_gamma': 0.1, 'base_lr': 0.0001, 'sched': 'PiecewiseDecay', '_target_': <function build_lr_scheduler_lazy at 0x7f2003e30680>, 'learning_rate': 0.0001}, '_target_': <function build_lr_optimizer_lazy at 0x7f2003e30200>}}
[32m[04/03 19:48:17 ufo]: [0mModel:
MultiTaskBatchFuse(
  (backbone): CLIP(
    (visual): VisionTransformer(
      (patch_embed): PatchEmbed(
        (proj): Conv2D(3, 768, kernel_size=[32, 32], stride=[32, 32], data_format=NCHW)
      )
      (pos_drop): Dropout(p=0.0, axis=None, mode=upscale_in_train)
      (norm_pre): LayerNorm(normalized_shape=[768], epsilon=1e-05)
      (blocks): LayerList(
        (0): Block(
          (norm1): LayerNorm(normalized_shape=[768], epsilon=1e-05)
          (attn): Attention(
            (qkv): Linear(in_features=768, out_features=2304, dtype=float32)
            (attn_drop): Dropout(p=0.0, axis=None, mode=upscale_in_train)
            (proj): Linear(in_features=768, out_features=768, dtype=float32)
            (proj_drop): Dropout(p=0.0, axis=None, mode=upscale_in_train)
          )
          (drop_path): Identity()
          (norm2): LayerNorm(normalized_shape=[768], epsilon=1e-05)
          (mlp): Mlp(
            (fc1): Linear(in_features=768, out_features=3072, dtype=float32)
            (act): QuickGELU()
            (fc2): Linear(in_features=3072, out_features=768, dtype=float32)
            (drop): Dropout(p=0.0, axis=None, mode=upscale_in_train)
          )
        )
        (1): Block(
          (norm1): LayerNorm(normalized_shape=[768], epsilon=1e-05)
          (attn): Attention(
            (qkv): Linear(in_features=768, out_features=2304, dtype=float32)
            (attn_drop): Dropout(p=0.0, axis=None, mode=upscale_in_train)
            (proj): Linear(in_features=768, out_features=768, dtype=float32)
            (proj_drop): Dropout(p=0.0, axis=None, mode=upscale_in_train)
          )
          (drop_path): Identity()
          (norm2): LayerNorm(normalized_shape=[768], epsilon=1e-05)
          (mlp): Mlp(
            (fc1): Linear(in_features=768, out_features=3072, dtype=float32)
            (act): QuickGELU()
            (fc2): Linear(in_features=3072, out_features=768, dtype=float32)
            (drop): Dropout(p=0.0, axis=None, mode=upscale_in_train)
          )
        )
        (2): Block(
          (norm1): LayerNorm(normalized_shape=[768], epsilon=1e-05)
          (attn): Attention(
            (qkv): Linear(in_features=768, out_features=2304, dtype=float32)
            (attn_drop): Dropout(p=0.0, axis=None, mode=upscale_in_train)
            (proj): Linear(in_features=768, out_features=768, dtype=float32)
            (proj_drop): Dropout(p=0.0, axis=None, mode=upscale_in_train)
          )
          (drop_path): Identity()
          (norm2): LayerNorm(normalized_shape=[768], epsilon=1e-05)
          (mlp): Mlp(
            (fc1): Linear(in_features=768, out_features=3072, dtype=float32)
            (act): QuickGELU()
            (fc2): Linear(in_features=3072, out_features=768, dtype=float32)
            (drop): Dropout(p=0.0, axis=None, mode=upscale_in_train)
          )
        )
        (3): Block(
          (norm1): LayerNorm(normalized_shape=[768], epsilon=1e-05)
          (attn): Attention(
            (qkv): Linear(in_features=768, out_features=2304, dtype=float32)
            (attn_drop): Dropout(p=0.0, axis=None, mode=upscale_in_train)
            (proj): Linear(in_features=768, out_features=768, dtype=float32)
            (proj_drop): Dropout(p=0.0, axis=None, mode=upscale_in_train)
          )
          (drop_path): Identity()
          (norm2): LayerNorm(normalized_shape=[768], epsilon=1e-05)
          (mlp): Mlp(
            (fc1): Linear(in_features=768, out_features=3072, dtype=float32)
            (act): QuickGELU()
            (fc2): Linear(in_features=3072, out_features=768, dtype=float32)
            (drop): Dropout(p=0.0, axis=None, mode=upscale_in_train)
          )
        )
        (4): Block(
          (norm1): LayerNorm(normalized_shape=[768], epsilon=1e-05)
          (attn): Attention(
            (qkv): Linear(in_features=768, out_features=2304, dtype=float32)
            (attn_drop): Dropout(p=0.0, axis=None, mode=upscale_in_train)
            (proj): Linear(in_features=768, out_features=768, dtype=float32)
            (proj_drop): Dropout(p=0.0, axis=None, mode=upscale_in_train)
          )
          (drop_path): Identity()
          (norm2): LayerNorm(normalized_shape=[768], epsilon=1e-05)
          (mlp): Mlp(
            (fc1): Linear(in_features=768, out_features=3072, dtype=float32)
            (act): QuickGELU()
            (fc2): Linear(in_features=3072, out_features=768, dtype=float32)
            (drop): Dropout(p=0.0, axis=None, mode=upscale_in_train)
          )
        )
        (5): Block(
          (norm1): LayerNorm(normalized_shape=[768], epsilon=1e-05)
          (attn): Attention(
            (qkv): Linear(in_features=768, out_features=2304, dtype=float32)
            (attn_drop): Dropout(p=0.0, axis=None, mode=upscale_in_train)
            (proj): Linear(in_features=768, out_features=768, dtype=float32)
            (proj_drop): Dropout(p=0.0, axis=None, mode=upscale_in_train)
          )
          (drop_path): Identity()
          (norm2): LayerNorm(normalized_shape=[768], epsilon=1e-05)
          (mlp): Mlp(
            (fc1): Linear(in_features=768, out_features=3072, dtype=float32)
            (act): QuickGELU()
            (fc2): Linear(in_features=3072, out_features=768, dtype=float32)
            (drop): Dropout(p=0.0, axis=None, mode=upscale_in_train)
          )
        )
        (6): Block(
          (norm1): LayerNorm(normalized_shape=[768], epsilon=1e-05)
          (attn): Attention(
            (qkv): Linear(in_features=768, out_features=2304, dtype=float32)
            (attn_drop): Dropout(p=0.0, axis=None, mode=upscale_in_train)
            (proj): Linear(in_features=768, out_features=768, dtype=float32)
            (proj_drop): Dropout(p=0.0, axis=None, mode=upscale_in_train)
          )
          (drop_path): Identity()
          (norm2): LayerNorm(normalized_shape=[768], epsilon=1e-05)
          (mlp): Mlp(
            (fc1): Linear(in_features=768, out_features=3072, dtype=float32)
            (act): QuickGELU()
            (fc2): Linear(in_features=3072, out_features=768, dtype=float32)
            (drop): Dropout(p=0.0, axis=None, mode=upscale_in_train)
          )
        )
        (7): Block(
          (norm1): LayerNorm(normalized_shape=[768], epsilon=1e-05)
          (attn): Attention(
            (qkv): Linear(in_features=768, out_features=2304, dtype=float32)
            (attn_drop): Dropout(p=0.0, axis=None, mode=upscale_in_train)
            (proj): Linear(in_features=768, out_features=768, dtype=float32)
            (proj_drop): Dropout(p=0.0, axis=None, mode=upscale_in_train)
          )
          (drop_path): Identity()
          (norm2): LayerNorm(normalized_shape=[768], epsilon=1e-05)
          (mlp): Mlp(
            (fc1): Linear(in_features=768, out_features=3072, dtype=float32)
            (act): QuickGELU()
            (fc2): Linear(in_features=3072, out_features=768, dtype=float32)
            (drop): Dropout(p=0.0, axis=None, mode=upscale_in_train)
          )
        )
        (8): Block(
          (norm1): LayerNorm(normalized_shape=[768], epsilon=1e-05)
          (attn): Attention(
            (qkv): Linear(in_features=768, out_features=2304, dtype=float32)
            (attn_drop): Dropout(p=0.0, axis=None, mode=upscale_in_train)
            (proj): Linear(in_features=768, out_features=768, dtype=float32)
            (proj_drop): Dropout(p=0.0, axis=None, mode=upscale_in_train)
          )
          (drop_path): Identity()
          (norm2): LayerNorm(normalized_shape=[768], epsilon=1e-05)
          (mlp): Mlp(
            (fc1): Linear(in_features=768, out_features=3072, dtype=float32)
            (act): QuickGELU()
            (fc2): Linear(in_features=3072, out_features=768, dtype=float32)
            (drop): Dropout(p=0.0, axis=None, mode=upscale_in_train)
          )
        )
        (9): Block(
          (norm1): LayerNorm(normalized_shape=[768], epsilon=1e-05)
          (attn): Attention(
            (qkv): Linear(in_features=768, out_features=2304, dtype=float32)
            (attn_drop): Dropout(p=0.0, axis=None, mode=upscale_in_train)
            (proj): Linear(in_features=768, out_features=768, dtype=float32)
            (proj_drop): Dropout(p=0.0, axis=None, mode=upscale_in_train)
          )
          (drop_path): Identity()
          (norm2): LayerNorm(normalized_shape=[768], epsilon=1e-05)
          (mlp): Mlp(
            (fc1): Linear(in_features=768, out_features=3072, dtype=float32)
            (act): QuickGELU()
            (fc2): Linear(in_features=3072, out_features=768, dtype=float32)
            (drop): Dropout(p=0.0, axis=None, mode=upscale_in_train)
          )
        )
        (10): Block(
          (norm1): LayerNorm(normalized_shape=[768], epsilon=1e-05)
          (attn): Attention(
            (qkv): Linear(in_features=768, out_features=2304, dtype=float32)
            (attn_drop): Dropout(p=0.0, axis=None, mode=upscale_in_train)
            (proj): Linear(in_features=768, out_features=768, dtype=float32)
            (proj_drop): Dropout(p=0.0, axis=None, mode=upscale_in_train)
          )
          (drop_path): Identity()
          (norm2): LayerNorm(normalized_shape=[768], epsilon=1e-05)
          (mlp): Mlp(
            (fc1): Linear(in_features=768, out_features=3072, dtype=float32)
            (act): QuickGELU()
            (fc2): Linear(in_features=3072, out_features=768, dtype=float32)
            (drop): Dropout(p=0.0, axis=None, mode=upscale_in_train)
          )
        )
        (11): Block(
          (norm1): LayerNorm(normalized_shape=[768], epsilon=1e-05)
          (attn): Attention(
            (qkv): Linear(in_features=768, out_features=2304, dtype=float32)
            (attn_drop): Dropout(p=0.0, axis=None, mode=upscale_in_train)
            (proj): Linear(in_features=768, out_features=768, dtype=float32)
            (proj_drop): Dropout(p=0.0, axis=None, mode=upscale_in_train)
          )
          (drop_path): Identity()
          (norm2): LayerNorm(normalized_shape=[768], epsilon=1e-05)
          (mlp): Mlp(
            (fc1): Linear(in_features=768, out_features=3072, dtype=float32)
            (act): QuickGELU()
            (fc2): Linear(in_features=3072, out_features=768, dtype=float32)
            (drop): Dropout(p=0.0, axis=None, mode=upscale_in_train)
          )
        )
      )
      (norm_post): LayerNorm(normalized_shape=[768], epsilon=1e-05)
    )
    (transformer): Transformer(
      (blocks): LayerList(
        (0): Block(
          (norm1): LayerNorm(normalized_shape=[512], epsilon=1e-05)
          (attn): Attention(
            (qkv): Linear(in_features=512, out_features=1536, dtype=float32)
            (attn_drop): Dropout(p=0.0, axis=None, mode=upscale_in_train)
            (proj): Linear(in_features=512, out_features=512, dtype=float32)
            (proj_drop): Dropout(p=0.0, axis=None, mode=upscale_in_train)
          )
          (drop_path): Identity()
          (norm2): LayerNorm(normalized_shape=[512], epsilon=1e-05)
          (mlp): Mlp(
            (fc1): Linear(in_features=512, out_features=2048, dtype=float32)
            (act): QuickGELU()
            (fc2): Linear(in_features=2048, out_features=512, dtype=float32)
            (drop): Dropout(p=0.0, axis=None, mode=upscale_in_train)
          )
        )
        (1): Block(
          (norm1): LayerNorm(normalized_shape=[512], epsilon=1e-05)
          (attn): Attention(
            (qkv): Linear(in_features=512, out_features=1536, dtype=float32)
            (attn_drop): Dropout(p=0.0, axis=None, mode=upscale_in_train)
            (proj): Linear(in_features=512, out_features=512, dtype=float32)
            (proj_drop): Dropout(p=0.0, axis=None, mode=upscale_in_train)
          )
          (drop_path): Identity()
          (norm2): LayerNorm(normalized_shape=[512], epsilon=1e-05)
          (mlp): Mlp(
            (fc1): Linear(in_features=512, out_features=2048, dtype=float32)
            (act): QuickGELU()
            (fc2): Linear(in_features=2048, out_features=512, dtype=float32)
            (drop): Dropout(p=0.0, axis=None, mode=upscale_in_train)
          )
        )
        (2): Block(
          (norm1): LayerNorm(normalized_shape=[512], epsilon=1e-05)
          (attn): Attention(
            (qkv): Linear(in_features=512, out_features=1536, dtype=float32)
            (attn_drop): Dropout(p=0.0, axis=None, mode=upscale_in_train)
            (proj): Linear(in_features=512, out_features=512, dtype=float32)
            (proj_drop): Dropout(p=0.0, axis=None, mode=upscale_in_train)
          )
          (drop_path): Identity()
          (norm2): LayerNorm(normalized_shape=[512], epsilon=1e-05)
          (mlp): Mlp(
            (fc1): Linear(in_features=512, out_features=2048, dtype=float32)
            (act): QuickGELU()
            (fc2): Linear(in_features=2048, out_features=512, dtype=float32)
            (drop): Dropout(p=0.0, axis=None, mode=upscale_in_train)
          )
        )
        (3): Block(
          (norm1): LayerNorm(normalized_shape=[512], epsilon=1e-05)
          (attn): Attention(
            (qkv): Linear(in_features=512, out_features=1536, dtype=float32)
            (attn_drop): Dropout(p=0.0, axis=None, mode=upscale_in_train)
            (proj): Linear(in_features=512, out_features=512, dtype=float32)
            (proj_drop): Dropout(p=0.0, axis=None, mode=upscale_in_train)
          )
          (drop_path): Identity()
          (norm2): LayerNorm(normalized_shape=[512], epsilon=1e-05)
          (mlp): Mlp(
            (fc1): Linear(in_features=512, out_features=2048, dtype=float32)
            (act): QuickGELU()
            (fc2): Linear(in_features=2048, out_features=512, dtype=float32)
            (drop): Dropout(p=0.0, axis=None, mode=upscale_in_train)
          )
        )
        (4): Block(
          (norm1): LayerNorm(normalized_shape=[512], epsilon=1e-05)
          (attn): Attention(
            (qkv): Linear(in_features=512, out_features=1536, dtype=float32)
            (attn_drop): Dropout(p=0.0, axis=None, mode=upscale_in_train)
            (proj): Linear(in_features=512, out_features=512, dtype=float32)
            (proj_drop): Dropout(p=0.0, axis=None, mode=upscale_in_train)
          )
          (drop_path): Identity()
          (norm2): LayerNorm(normalized_shape=[512], epsilon=1e-05)
          (mlp): Mlp(
            (fc1): Linear(in_features=512, out_features=2048, dtype=float32)
            (act): QuickGELU()
            (fc2): Linear(in_features=2048, out_features=512, dtype=float32)
            (drop): Dropout(p=0.0, axis=None, mode=upscale_in_train)
          )
        )
        (5): Block(
          (norm1): LayerNorm(normalized_shape=[512], epsilon=1e-05)
          (attn): Attention(
            (qkv): Linear(in_features=512, out_features=1536, dtype=float32)
            (attn_drop): Dropout(p=0.0, axis=None, mode=upscale_in_train)
            (proj): Linear(in_features=512, out_features=512, dtype=float32)
            (proj_drop): Dropout(p=0.0, axis=None, mode=upscale_in_train)
          )
          (drop_path): Identity()
          (norm2): LayerNorm(normalized_shape=[512], epsilon=1e-05)
          (mlp): Mlp(
            (fc1): Linear(in_features=512, out_features=2048, dtype=float32)
            (act): QuickGELU()
            (fc2): Linear(in_features=2048, out_features=512, dtype=float32)
            (drop): Dropout(p=0.0, axis=None, mode=upscale_in_train)
          )
        )
        (6): Block(
          (norm1): LayerNorm(normalized_shape=[512], epsilon=1e-05)
          (attn): Attention(
            (qkv): Linear(in_features=512, out_features=1536, dtype=float32)
            (attn_drop): Dropout(p=0.0, axis=None, mode=upscale_in_train)
            (proj): Linear(in_features=512, out_features=512, dtype=float32)
            (proj_drop): Dropout(p=0.0, axis=None, mode=upscale_in_train)
          )
          (drop_path): Identity()
          (norm2): LayerNorm(normalized_shape=[512], epsilon=1e-05)
          (mlp): Mlp(
            (fc1): Linear(in_features=512, out_features=2048, dtype=float32)
            (act): QuickGELU()
            (fc2): Linear(in_features=2048, out_features=512, dtype=float32)
            (drop): Dropout(p=0.0, axis=None, mode=upscale_in_train)
          )
        )
        (7): Block(
          (norm1): LayerNorm(normalized_shape=[512], epsilon=1e-05)
          (attn): Attention(
            (qkv): Linear(in_features=512, out_features=1536, dtype=float32)
            (attn_drop): Dropout(p=0.0, axis=None, mode=upscale_in_train)
            (proj): Linear(in_features=512, out_features=512, dtype=float32)
            (proj_drop): Dropout(p=0.0, axis=None, mode=upscale_in_train)
          )
          (drop_path): Identity()
          (norm2): LayerNorm(normalized_shape=[512], epsilon=1e-05)
          (mlp): Mlp(
            (fc1): Linear(in_features=512, out_features=2048, dtype=float32)
            (act): QuickGELU()
            (fc2): Linear(in_features=2048, out_features=512, dtype=float32)
            (drop): Dropout(p=0.0, axis=None, mode=upscale_in_train)
          )
        )
        (8): Block(
          (norm1): LayerNorm(normalized_shape=[512], epsilon=1e-05)
          (attn): Attention(
            (qkv): Linear(in_features=512, out_features=1536, dtype=float32)
            (attn_drop): Dropout(p=0.0, axis=None, mode=upscale_in_train)
            (proj): Linear(in_features=512, out_features=512, dtype=float32)
            (proj_drop): Dropout(p=0.0, axis=None, mode=upscale_in_train)
          )
          (drop_path): Identity()
          (norm2): LayerNorm(normalized_shape=[512], epsilon=1e-05)
          (mlp): Mlp(
            (fc1): Linear(in_features=512, out_features=2048, dtype=float32)
            (act): QuickGELU()
            (fc2): Linear(in_features=2048, out_features=512, dtype=float32)
            (drop): Dropout(p=0.0, axis=None, mode=upscale_in_train)
          )
        )
        (9): Block(
          (norm1): LayerNorm(normalized_shape=[512], epsilon=1e-05)
          (attn): Attention(
            (qkv): Linear(in_features=512, out_features=1536, dtype=float32)
            (attn_drop): Dropout(p=0.0, axis=None, mode=upscale_in_train)
            (proj): Linear(in_features=512, out_features=512, dtype=float32)
            (proj_drop): Dropout(p=0.0, axis=None, mode=upscale_in_train)
          )
          (drop_path): Identity()
          (norm2): LayerNorm(normalized_shape=[512], epsilon=1e-05)
          (mlp): Mlp(
            (fc1): Linear(in_features=512, out_features=2048, dtype=float32)
            (act): QuickGELU()
            (fc2): Linear(in_features=2048, out_features=512, dtype=float32)
            (drop): Dropout(p=0.0, axis=None, mode=upscale_in_train)
          )
        )
        (10): Block(
          (norm1): LayerNorm(normalized_shape=[512], epsilon=1e-05)
          (attn): Attention(
            (qkv): Linear(in_features=512, out_features=1536, dtype=float32)
            (attn_drop): Dropout(p=0.0, axis=None, mode=upscale_in_train)
            (proj): Linear(in_features=512, out_features=512, dtype=float32)
            (proj_drop): Dropout(p=0.0, axis=None, mode=upscale_in_train)
          )
          (drop_path): Identity()
          (norm2): LayerNorm(normalized_shape=[512], epsilon=1e-05)
          (mlp): Mlp(
            (fc1): Linear(in_features=512, out_features=2048, dtype=float32)
            (act): QuickGELU()
            (fc2): Linear(in_features=2048, out_features=512, dtype=float32)
            (drop): Dropout(p=0.0, axis=None, mode=upscale_in_train)
          )
        )
        (11): Block(
          (norm1): LayerNorm(normalized_shape=[512], epsilon=1e-05)
          (attn): Attention(
            (qkv): Linear(in_features=512, out_features=1536, dtype=float32)
            (attn_drop): Dropout(p=0.0, axis=None, mode=upscale_in_train)
            (proj): Linear(in_features=512, out_features=512, dtype=float32)
            (proj_drop): Dropout(p=0.0, axis=None, mode=upscale_in_train)
          )
          (drop_path): Identity()
          (norm2): LayerNorm(normalized_shape=[512], epsilon=1e-05)
          (mlp): Mlp(
            (fc1): Linear(in_features=512, out_features=2048, dtype=float32)
            (act): QuickGELU()
            (fc2): Linear(in_features=2048, out_features=512, dtype=float32)
            (drop): Dropout(p=0.0, axis=None, mode=upscale_in_train)
          )
        )
      )
    )
    (token_embedding): Embedding(49408, 512, sparse=False)
    (ln_final): LayerNorm(normalized_shape=[512], epsilon=1e-05)
  )
  (heads): LayerDict(
    (retrieval): RetrievalHead(
      (criterion): CrossEntropyLoss()
    )
  )
)
[32m[04/03 19:48:17 ufo]: [0mOptim:
Weight Decay, params: 
backbone.logit_scale has [1], but backbone.logit_scale has []
backbone.logit_scale has [], but backbone.logit_scale has [1]
missing keys: []
unexpected keys: []
Exception during training:
Traceback (most recent call last):
…
